face_embedder.pth (torch, 450099 bytes, 20 tensors)

conv.0.weight f4 [32, 3, 3, 3]
000000 59 75 bc bd 01 fc d2 bc 29 d1 2b 3e 5d 11 c4 3d
       -0.0920207 -0.02575493 0.16779007 0.09573624
000010 bc fb 15 3d 82 0f 6f 3e e4 7c 2a 38 95 6e 96 3e
       0.036617026 0.2334576 4.0647472e-05 0.29381242
000020 76 1b 82 3d 4b 51 54 bd 7a 5d af 3d ba 12 a4 3e
       0.06352894 -0.05183534 0.08562751 0.32045537
000030 b0 89 31 be cf 7a 41 3e 09 1d de 3d 0e 29 c6 3d
       -0.1733768 0.18894504 0.10845382 0.09675799
000040 c1 b9 31 3e 15 76 d3 3d 51 c7 66 3e 55 7e 18 3f
       0.17356016 0.10325257 0.2253697 0.5956777
000050 23 73 57 3f db 06 14 3f ce 3c 05 3f bf 7f 5b 3f
       0.8416006 0.5782296 0.52045906 0.857418
000060 97 18 6e 3f 7d 97 68 3f 84 e6 58 3f f8 fc da 3d
       0.9300627 0.9085615 0.8472674 0.10692781
000070 ca 25 05 3e e9 8a 0c 3e a7 6f 32 bf af 8b af bb
       0.13002697 0.13724865 -0.6970162 -0.0053572278
000080 83 48 dc 3e 35 37 39 bf 58 c8 d4 ba 60 54 d3 3e
       0.43024072 -0.72349864 -0.0016234023 0.4127531
000090 5d 3b b9 3d d3 c9 d7 3e c1 e8 53 3e 6c b5 cf be
       0.09044526 0.42146167 0.20694257 -0.405681
0000a0 2f 38 ca 3d 97 5f 06 3d 45 5e dd be 66 52 34 be
       0.098739974 0.032806005 -0.43235984 -0.17609558
0000b0 8b fa 8a 3e ad df 96 3e 9b d8 e2 3e 7b d2 bd 3d
       0.27144274 0.29467526 0.44305882 0.092686616
0000c0 55 0a e5 be 42 b7 4a 3e e7 8b 1c 3e 7e 7b 2b bf
       -0.44734445 0.1979647 0.15287744 -0.6698531
0000d0 64 ba ac be 9e a2 81 3e 36 28 47 3d ad a5 88 3e
       -0.33735955 0.2531938 0.048622333 0.266889
0000e0 5a 72 0c 3f 10 62 f4 3d 48 c2 4e 3e c2 0f 65 bb
       0.54861987 0.119327664 0.201913 -0.003495202
0000f0 c4 3e 62 be 47 5a c6 be 34 02 0a bf 2b 80 b5 3e
       -0.22094256 -0.3874075 -0.5390961 0.35449347
000100 88 6c bb 3e 23 4b f6 3e 4b 11 ef 3d db 85 00 3d
       0.3660624 0.481042 0.1167322 0.031377655
000110 ac 36 8a be 0d 2c 24 be e7 00 11 bf eb b3 cc be
       -0.26994836 -0.16032429 -0.56642 -0.39981017
000120 b4 7e 01 3e 56 5c 1e 3f 3c e5 0a 3f 04 11 f4 3d
       0.1264599 0.61859643 0.54256034 0.11917308
000130 67 39 08 3d c3 a2 10 be 99 76 39 be e1 78 03 bf
       0.03325787 -0.14124589 -0.18111648 -0.5135632
000140 a7 c5 15 bf 6d 0a 2b 3d fc 2b f0 bd 91 b4 c1 be
       -0.5850472 0.04175799 -0.11727139 -0.37833074
000150 08 61 1c 3f 2d c2 a6 3e c8 4f 66 bc 83 5a d4 3d
       0.6108556 0.3257002 -0.014057107 0.10368826
000160 67 ae 47 be 24 b7 b2 be 29 c6 ce be 85 bb f5 be
       -0.19500123 -0.3490535 -0.4038556 -0.4799463
000170 1c 9b 96 be ce c3 c9 3e af 68 c6 3e fa 92 40 bd
       -0.29415214 0.394072 0.38751742 -0.047015168
000180 ce f6 43 bc 8b 6b 92 3e 2c c2 96 3e 3a 6e 24 bf
       -0.011960698 0.28597674 0.29445016 -0.6423069
000190 4f c3 28 bf 40 62 89 be 26 e4 d6 3e 42 14 3d 3e
       -0.6592302 -0.2683277 0.41970938 0.18464759
0001a0 aa c2 ea bc 27 8a 75 3e a3 b7 fc 3e 80 dd 9a 3e
       -0.028657276 0.23978482 0.49358854 0.30247116
0001b0 ca 64 38 bf c3 82 24 bf 89 7e 14 bf 46 3b 9c 3c
       -0.7202879 -0.64262027 -0.5800558 0.019071233
0001c0 ff 2a f4 bd b7 89 b9 3d 11 df 1a 3f 16 e2 29 3f
       -0.11922263 0.0905947 0.6049662 0.66360605
0001d0 a4 3e 17 3f cd f3 aa be d9 5e 02 be 27 ff 10 be
       0.59079957 -0.3338913 -0.12731494 -0.14159833
0001e0 4b 48 42 bd 9e 2b b1 3a df 33 20 bd 51 e5 9b 3e
       -0.047432225 0.0013517027 -0.039111968 0.30448392
0001f0 2e b4 b9 3e 0b cd 3d bb fd b2 b2 be f8 48 82 be
       0.3627028 -0.0028961326 -0.34902182 -0.25446296
000200 53 e3 1e bc 05 f0 de 3d 6c fb ee 3c 6c 8d 80 bd
       -0.009697753 0.10885624 0.029172622 -0.06276974
000210 25 19 39 3e 02 ae 44 3d 31 37 9e 3e 1f 7e 63 3d
       0.18075998 0.04801751 0.30901483 0.0555402
000220 87 73 0c bf ed 3a 59 bf 54 06 aa 3e 5e b9 c0 bc
       -0.5486378 -0.8485554 0.33207953 -0.02352589
000230 14 33 ef be 88 2f 2d 3f b4 eb b0 3e 57 09 83 3e
       -0.46718657 0.6765065 0.34554827 0.25593063
000240 32 b3 8f be cf 43 e3 be 37 af dc be 89 43 a1 3e
       -0.28066403 -0.4438767 -0.43102428 0.31496838
000250 18 cc 87 3c fc 51 95 bd 35 4c 86 3e a7 b6 1a 3e
       0.016576812 -0.07291028 0.26230016 0.15108739
000260 ce 0c ce 3d 73 12 4c bd a4 06 a0 be 6e 59 fa 3d
       0.10061036 -0.049822282 -0.31255066 0.122240886
000270 d7 1e 09 3d fc 14 90 bd 94 63 50 bd 99 f0 60 be
       0.033476677 -0.070352525 -0.050876215 -0.2196678
000280 ac bf b1 bd 5f c6 52 be e9 21 02 bf 45 14 db be
       -0.08679137 -0.20583485 -0.5083299 -0.42788902
000290 48 2f 82 bd 35 91 9e bb 84 b0 61 3d bb b9 89 3e
       -0.063566744 -0.0048390874 0.05509998 0.26899514
0002a0 2c 41 ca bc 08 d3 78 3e 40 c7 53 3e 0e 43 0f bf
       -0.02468928 0.24299252 0.20681477 -0.5596169
0002b0 7c 29 fd be 05 9c 05 be 0c 4a f7 bd d5 d9 12 bc
       -0.49445713 -0.13047798 -0.1207467 -0.008963068
0002c0 7f c2 84 3e 0c e4 3d 3e 0c 70 e9 3e 82 69 16 3f
       0.2592964 0.18544024 0.45593297 0.5875474
0002d0 c6 2e 50 bf 5b 82 9e be 7f d1 57 bb 50 43 64 be
       -0.8132137 -0.30958828 -0.0032931266 -0.22291303
0002e0 ce e5 b9 3d 01 db aa 3e 4e 26 73 3e e1 40 d3 3e
       0.09077035 0.33370212 0.23745081 0.41260436
0002f0 6e 1d c5 3e 05 bc 94 bd 57 f1 46 3d fd 79 ae 3e
       0.38499016 -0.072624244 0.048570003 0.34077445
000300 bb d5 f8 be e6 78 e9 3d 99 cf 70 3e 16 ea 3c bf
       -0.48600563 0.11400013 0.23516692 -0.73794687
000310 27 68 2b 3e 5e 63 fc 3e 17 f9 b2 be b3 52 5a be
       0.1673895 0.4929456 -0.34955665 -0.2132061
000320 47 d2 74 bd 59 0c 00 bf 34 aa d3 3e b8 62 a2 3e
       -0.05977085 -0.5001884 0.41340792 0.3171594
000330 cf fa 02 bf 02 a7 73 3e b7 3e 0a 3f 62 15 fd bd
       -0.51163954 0.23794177 0.54001945 -0.12357594
000340 0c 98 89 bd 4d 00 24 3d 74 00 b7 be 79 3d 21 3e
       -0.06718454 0.04003935 -0.35742533 0.15746106
000350 0c fa ff 3d c9 47 d2 be 8e a9 92 3e 00 9d f4 3e
       0.124988645 -0.41070393 0.28644985 0.47776031
000360 d7 d5 3a 3f 57 3a f5 3e 86 41 42 bd 9e bc 15 3f
       0.72982544 0.47896072 -0.04742577 0.5849093
000370 ec 95 8c be f9 99 db be 2f 9b fd 3b cb ae 3d bf
       -0.2745813 -0.4289091 0.0077394466 -0.7409484
000380 4f ee 3c bf 73 db e4 3e 11 b3 1c be 21 c3 96 bd
       -0.7380113 0.44698676 -0.15302683 -0.07361437
000390 f8 1d c1 3e b1 f0 13 be e0 9b 8c be 97 94 82 bd
       0.37718177 -0.14447285 -0.27462673 -0.063759975
0003a0 04 2c 52 be 56 65 3f 3d 33 f1 bd 3d 1e c7 4c bc
       -0.20524603 0.0467275 0.09274521 -0.012498645
0003b0 d9 7a 8a 3e ea 80 8e 3e b4 49 c6 3d 35 81 23 be
       0.2704685 0.2783273 0.096820265 -0.15967257
0003c0 89 7a c8 bd fc 62 d3 be a6 c9 0f be 82 27 26 bf
       -0.09788997 -0.41286457 -0.14041767 -0.64904034
0003d0 73 ee 01 bf 0d 7c cb bd fa a3 24 bf 00 45 1d be
       -0.5075447 -0.0993577 -0.6431271 -0.15358353
0003e0 4d 94 69 be fe 92 a6 be 3d 0d bd bd 1f 34 67 3d
       -0.22810479 -0.3253402 -0.092310406 0.05644619
0003f0 89 86 2a be 62 f7 9b be ee cf 9b be 25 98 3f be
       -0.16652884 -0.30462176 -0.30432075 -0.18710382

conv.0.bias f4 [32]
000000 1c d5 53 be 30 5a 0f 3e 52 a4 c0 3d 5a 8d e9 3e
       -0.20686764 0.13999248 0.094063416 0.45615655
000010 db 4a b0 be 0d ed c3 3e 23 ef 66 3e 36 31 24 be
       -0.3443211 0.38266793 0.22552161 -0.16034397
000020 1a af 0f bd 12 60 bf 3e 88 e9 cb be 00 b7 85 be
       -0.0350791 0.37377983 -0.39826608 -0.2611618
000030 a7 59 7d be b9 13 4f be 4e 48 2d bd 80 e3 0f be
       -0.24741231 -0.20222367 -0.042305283 -0.14051628
000040 a1 9f 62 bc e5 83 6f 3e f7 0d c8 ba b6 fb ff 3d
       -0.013832004 0.23390158 -0.0015262951 0.12499182
000050 61 a5 30 bc eb 2f b8 bd 73 f3 5e be 09 b8 4a 3e
       -0.010781617 -0.089935146 -0.21772556 0.19796766
000060 81 1d 5b be d9 cb 8a be 0a 63 17 be 38 0e 0d bd
       -0.21397974 -0.27108648 -0.14783874 -0.03443739
000070 07 b4 fd bc e1 fa dd bd 39 4e 02 be 71 c4 53 be
       -0.030969633 -0.10838867 -0.12725152 -0.20680405

conv.1.weight f4 [32]
000000 f8 d4 1a 3e 97 21 5c 3f d6 5a bd 3f d7 9c 55 3f
       0.15120304 0.85988754 1.4793346 0.83442444
000010 ae 17 a4 3f ab 47 68 3f 36 38 58 3f 54 b4 92 3f
       1.2819726 0.90734357 0.8446077 1.1461282
000020 0f 79 48 3f 03 db c8 3e 8e 0f 9a 3f 4e c8 b0 3f
       0.7830972 0.39229593 1.2035997 1.3811128
000030 94 82 87 3f 7c fb 1a 3f db 74 94 3f 94 9c 91 3f
       1.0586724 0.60539985 1.1598161 1.1375909
000040 65 b2 f1 3e af d6 66 3f a3 09 a7 3f 81 0a 64 3f
       0.47206417 0.9017133 1.3049816 0.8907853
000050 c3 22 30 3f 65 72 d9 3e 82 35 f8 3e c2 3d 22 3f
       0.6880304 0.4247009 0.48478323 0.63375485
000060 a6 db 6c 3f 21 46 46 3f 8b 5b 12 3f 88 11 b7 3e
       0.92522657 0.7745076 0.57170933 0.35755563
000070 a6 a8 45 3e d8 4c 80 3f f6 76 15 3f 06 c3 18 3f
       0.19302616 1.0023451 0.58384645 0.5967258

conv.1.bias f4 [32]
000000 5f ec ea 3d df 47 04 3f af f7 96 3e 18 35 8f 3e
       0.114708655 0.51672167 0.29485843 0.27970195
000010 cd 66 0d 3f 25 ce 3e bf 43 6b 80 bf 1d 46 ad 3d
       0.55234987 -0.745333 -1.0032734 0.08460639
000020 ca 5f ea be aa 78 68 3e 88 eb 18 3f b1 aa 9e bf
       -0.45776206 0.2270228 0.5973439 -1.2395841
000030 08 a0 a9 bf 47 af fe be cf 6f 19 3f b0 dd 72 bf
       -1.3251963 -0.497431 0.5993623 -0.9486952
000040 73 c5 7e be 21 ba 7e bf ac 25 28 3e 41 5e 06 be
       -0.24880008 -0.9950276 0.1642062 -0.13121893
000050 18 4b af 3d 26 9e b7 3e 54 32 94 be 10 a2 e7 be
       0.08559245 0.35862845 -0.28944647 -0.4524083
000060 16 da 64 bf ca df fe bd 95 8e 26 bf ee e3 af be
       -0.8939527 -0.12445028 -0.6506131 -0.34353584
000070 b7 64 38 3e b6 b1 a0 bc d6 31 13 bf 40 35 1a 40
       0.1800717 -0.01961599 -0.5749792 2.4095001

conv.1.running_mean f4 [32]
000000 96 19 04 c0 19 06 02 3e 19 cd c3 3d da f6 d6 3e
       -2.0640616 0.12697639 0.09560604 0.41985208
000010 14 cf ab be 2f f8 30 3f 80 1a 32 3e d8 17 35 be
       -0.33556426 0.691287 0.17392921 -0.17684877
000020 a0 40 a0 3c e7 31 9e be dc d1 df be e0 23 78 be
       0.019562066 -0.30897447 -0.43714797 -0.24232435
000030 a1 43 9a be 4b 88 a1 be 6a 0f 1a bd 09 86 03 be
       -0.30129722 -0.31549296 -0.037612356 -0.12844099
000040 77 45 63 3d fc 03 2b 3e 14 53 14 3c 30 5f fd 3d
       0.05548617 0.16700739 0.0090530105 0.12371671
000050 65 48 3e bf 5f a0 c4 3e 40 63 0b 3e ba d6 8f be
       -0.74329215 0.38403603 0.1361208 -0.2809351
000060 35 17 93 be bf 95 85 be 40 bc eb bd ae 28 1a bf
       -0.28728643 -0.2609081 -0.11510515 -0.6021832
000070 de 75 e8 3e 1a fa fe bd 4c 04 37 bf ac d9 32 be
       0.45402426 -0.12450047 -0.7149093 -0.17465848

conv.1.running_var f4 [32]
000000 ed 70 8e 41 89 b7 ac 3e 1a 84 d6 3e 4d 72 68 3e
       17.80514 0.33733776 0.4189766 0.22699852
000010 1b b0 af 3e fd 68 53 3f dd 94 de 3e 72 c4 b8 3e
       0.34314045 0.82582074 0.4347295 0.36087376
000020 ac f5 d0 3e b9 f6 87 3f 3e 88 a2 3e 09 5a c9 3e
       0.40812433 1.0622169 0.3174457 0.39326504
000030 7f ad e9 3e 9a d5 a6 3f 58 74 a3 3e 92 92 c6 3e
       0.4564018 1.3033936 0.319247 0.387837
000040 90 11 fc 3d 39 78 89 3d 07 1e a9 3e 70 92 3d 3e
       0.12308037 0.06712384 0.33030722 0.18512893
000050 72 0a 93 3f 09 b8 92 3f 90 5b 9d 3f 37 e0 3c 3f
       1.1487563 1.1462413 1.2293568 0.73779625
000060 c3 26 b5 3e f0 35 06 3d 9d 89 80 3f 2f 6d 3b 41
       0.35381135 0.032766283 1.0041996 11.714156
000070 15 38 ac 3f 7e 13 fd 3d 42 92 69 3f 70 23 dc 3e
       1.3454615 0.123572335 0.91238797 0.42995787

conv.4.weight f4 [64, 32, 3, 3]
000000 ab 63 57 be be 73 66 be 55 85 c8 bd 27 78 14 be
       -0.21034114 -0.2250509 -0.09791056 -0.1449896
000010 9c 26 34 be 1f d3 9d bd 03 0c c4 3d 0b 95 42 3c
       -0.17592853 -0.07706284 0.095726036 0.011876355
000020 86 2e c3 bd 7a 83 b7 be 0f b6 b8 bd 2e d6 c2 3d
       -0.09530358 -0.35842496 -0.090191 0.09513508
000030 9c e3 5d be ce 18 a6 be 34 d7 48 3e d3 ad fd 3e
       -0.21668857 -0.324408 0.19613343 0.4954668
000040 30 17 41 bf 50 a2 45 be ea 49 0f bf 39 f6 9a be
       -0.75426006 -0.19300199 -0.5597216 -0.30265978
000050 e0 6a b5 bc b3 7e aa bf fc a4 c9 bd 2c b2 36 3f
       -0.022145689 -1.3319916 -0.098459214 0.7136562
000060 08 f5 1b be e5 b2 8c 3e 17 f1 09 3f 3b 6e 0c bf
       -0.15230191 0.27480236 0.538835 -0.548557
000070 c9 33 ee be c3 ea 37 3e be 3a 13 3e 5e b0 7f 3e
       -0.46523884 0.17960648 0.14377877 0.24969622
000080 c9 2d ab be 0c 75 ae 3e ef 48 82 3e 12 c3 f8 3d
       -0.3343337 0.34073675 0.2544627 0.12146582
000090 49 dd ba be 6f 0a 87 be f3 c1 76 3e 34 40 07 bd
       -0.36496952 -0.26375148 0.24097423 -0.033020213
0000a0 0c e5 64 3e 01 38 17 bf 99 17 be 3c c8 01 9d 3d
       0.22353 -0.5906983 0.023204612 0.07666355
0000b0 73 43 b8 bd 42 b4 40 be 7f 38 d3 3b c4 0b 0d 3e
       -0.0899724 -0.18818763 0.006445944 0.1377402
0000c0 46 e3 cf bd c2 dc 94 3e 37 83 c1 3d 9d 61 9b bd
       -0.10150771 0.29074675 0.09448855 -0.07586978
0000d0 d0 64 b0 3d 1c 6a 06 bb 46 1f b8 be e4 75 76 be
       0.086129785 -0.0020510023 -0.3596136 -0.24068409
0000e0 a9 95 2e be b4 7b 6f be 70 fb 00 bd 8e 4f 51 bd
       -0.17049278 -0.23387033 -0.03148979 -0.05110126
0000f0 b7 62 98 be 1f 84 37 be a1 09 c9 be da 8a 2d bd
       -0.29762813 -0.17921494 -0.3926516 -0.042368747
000100 d0 55 37 bd d1 10 1c 3e 0b 01 f1 3d ce 31 b9 be
       -0.04475957 0.1524079 0.11767777 -0.3617081
000110 48 d1 7d be f7 b9 58 3f 6c bc e9 be 94 d2 f4 be
       -0.24786866 0.8465876 -0.45651567 -0.47816908
000120 8e 88 6a be a5 a8 26 3d 2e 10 6a be 27 97 9d be
       -0.22903654 0.040688176 -0.22857735 -0.30779383
000130 b2 2f a4 be 73 30 09 bd 18 19 06 bf e0 48 20 3d
       -0.3206764 -0.03349347 -0.5238204 0.039132
000140 c9 80 b1 3e c7 b8 8e bd 9b 36 00 be 47 6a 8e bc
       0.34668568 -0.06968837 -0.1252083 -0.017384661
000150 e8 28 be 3d 71 71 38 bd 55 73 fa bd ae bb 49 3e
       0.09285146 -0.04503006 -0.12229029 0.197005
000160 7d dd c4 3d 05 9d 62 3e 46 5f 06 3e 68 4b 4d bd
       0.09612558 0.2213021 0.13122281 -0.05012074
000170 1d 10 bd 3e 8c be 38 3c 03 98 0d be aa 89 0d 3d
       0.36926356 0.011275899 -0.13827519 0.034555115
000180 97 2b 2b 3f ea cf 94 bf 10 70 b5 be b1 cd 98 3d
       0.6686339 -1.162595 -0.3543706 0.074611075
000190 78 cb dc 3c c7 ae 27 3e 02 4f 12 3e c8 47 ae 3c
       0.02695249 0.16375266 0.14287952 0.021274462
0001a0 6f 76 ce bd af 72 aa be 3d 87 de be d9 07 11 bf
       -0.10081183 -0.33290622 -0.43462554 -0.566526
0001b0 9d 6d 55 bb 36 f2 89 be 33 2c ed be 97 28 4b be
       -0.0032566555 -0.26942605 -0.46322784 -0.19839703
0001c0 c3 c4 76 bd d7 31 d2 bd 67 a4 58 bd 43 7e 8e be
       -0.06024624 -0.102634124 -0.05289116 -0.27830705
0001d0 0f 3c 22 bf 99 fe c0 3d 59 db 24 3e 9c ad 48 3e
       -0.6337289 0.09423561 0.160993 0.19597477
0001e0 50 fd ae 3e bd 48 a6 3e af 6f 9b 3e 10 7e 2e 3e
       0.34177637 0.3247737 0.30358645 0.17040277
0001f0 28 2b 30 3e 63 ad 43 3e 00 81 86 be e6 54 fc be
       0.17203963 0.1910911 -0.26270294 -0.49283522
000200 6f 80 3d bf 0f 65 2a be 2d 86 ae bd 98 f9 96 3b
       -0.740241 -0.16640113 -0.08521686 0.0046073906
000210 35 d9 fa 3d d3 73 0a 3f ed fc 34 3f b7 21 87 be
       0.1224846 0.54082984 0.70698434 -0.2639291
000220 04 6f 6d bd b5 56 af be 08 3a 3a be 61 76 ee 3b
       -0.0579672 -0.3424584 -0.181862 0.0072772955
000230 c2 5d d7 bd 64 6c 4e be 36 71 f9 be dc 2c 16 bf
       -0.1051593 -0.20158535 -0.48719186 -0.586622
000240 fc 6a 3c 3b 2c f4 35 be e4 58 4c 3e 50 88 b9 be
       0.002875029 -0.17768925 0.19955784 -0.3623681
000250 71 40 8c be 72 57 48 bd 61 d7 56 be 78 bc f3 be
       -0.27392915 -0.04891152 -0.20980598 -0.47604728
000260 d6 bd 05 bf 2f 74 62 bd 82 9c 9e be 54 ca 24 bf
       -0.5224279 -0.055286583 -0.3097878 -0.6437123
000270 f7 fd fe be cf db 18 bf c5 83 34 be 12 f9 53 be
       -0.49803135 -0.597104 -0.17628391 -0.20700482
000280 63 92 50 3e 95 96 ad 3c 6e 48 34 be 1a 65 3c bf
       0.20368342 0.021189967 -0.17605755 -0.7359177
000290 44 1c 81 bf 9d 03 cf bd 37 54 d3 be bc 33 e4 bd
       -1.0086751 -0.10108111 -0.41275188 -0.1114268
0002a0 0a 82 98 3e 15 4e 01 3f ec 50 31 3f 53 54 77 be
       0.29786712 0.5050977 0.692641 -0.24153261
0002b0 66 55 d8 bd 39 9d 1b 3e 18 ff 18 be 99 a9 03 3d
       -0.105631635 0.15196694 -0.1494106 0.032144163
0002c0 10 8b 85 3d de 0f 01 be 93 dc 8f bd ef 6e 8c bd
       0.06520665 -0.12603709 -0.07024493 -0.068570964
0002d0 f4 8c c0 bd 6f c6 6c be 0f 59 43 be 72 41 47 be
       -0.09401885 -0.23122571 -0.19076942 -0.19458559
0002e0 e3 98 74 be 18 6b 46 bd c5 d4 ce 3d a1 8a 1f bc
       -0.23886447 -0.048441976 0.10099176 -0.009737642
0002f0 1b af 90 3d 17 34 55 3e 95 87 6c 3e 3a fe 3b 3e
       0.07064649 0.20820652 0.23098595 0.18358698
000300 ba f1 d4 be 5e 5a 9c be e7 1c 52 bc d7 ea b5 be
       -0.41590673 -0.30537695 -0.012824274 -0.3553073
000310 9d e3 dc be 8b f8 9a be ce 2b 01 3e 84 28 38 3e
       -0.43142405 -0.30267748 0.12614366 0.17984205
000320 6c f4 4c 3e 3e 29 8f 3e ae 35 9c 3e 8b d1 d0 3e
       0.20015115 0.27961153 0.30509704 0.4078487
000330 74 48 1d 3e b6 d8 be 3d 16 12 a0 3e 67 ea e9 3c
       0.1535967 0.09318678 0.31263798 0.028554155
000340 2d ba e8 bd dd 41 d1 bc 9c 26 18 bd 87 e2 c8 bd
       -0.11363635 -0.025544101 -0.037146196 -0.09808832
000350 58 b5 5f be d9 e9 02 be f6 9f 03 be 47 52 ec bd
       -0.21846521 -0.12784518 -0.12853989 -0.11539131
000360 f0 fb 0c be 3b 1b f8 bd 76 fa 66 be 77 8a 22 bf
       -0.13767982 -0.12114569 -0.22556481 -0.6349253
000370 db eb f7 be 53 2e b7 bd 1b ee cb be 4d af 95 3d
       -0.4842213 -0.089443825 -0.39830098 0.073088266
000380 5c 91 2a 3e d0 50 aa bd c4 11 11 3d 67 4c 77 3e
       0.16657013 -0.08316195 0.035417333 0.24150239
000390 3f a6 8a be 00 6b 6c bd cf 00 9a 3e ba e0 ed be
       -0.2707996 -0.05771923 0.30078742 -0.46460515
0003a0 ec 76 5e 3d dc 9d b3 3e df 4e 59 be b9 b3 7b be
       0.05431263 0.35081375 -0.21221493 -0.24580278
0003b0 02 24 29 be 52 5a 20 be fb f2 39 bd ca e9 ca 3c
       -0.16517642 -0.15659454 -0.04539774 0.024769682
0003c0 33 e6 a2 3b f3 f4 42 3c 7e 83 01 3e 19 28 45 be
       0.0049712895 0.011899221 0.12647817 -0.19253577
0003d0 e2 6f 33 be ba ba 1e 3d e8 91 04 bd 19 78 14 bd
       -0.17523149 0.038752295 -0.03236571 -0.036247347
0003e0 1d 73 23 bd 4c d9 0d 3e 93 84 f7 3d 63 45 8f 3d
       -0.039904702 0.13852423 0.120858334 0.06995656
0003f0 4c 5a 5b 3e cd ba 40 3e 25 f1 c3 3e 72 ad d3 3c
       0.21421164 0.18821259 0.38269916 0.025839541

conv.4.bias f4 [64]
000000 b9 a4 83 bd 25 57 80 3d 2d 12 a3 bc de 4f b3 bd
       -0.06427903 0.062666215 -0.019906128 -0.08755468
000010 7a 31 81 bc d1 b3 fb bc b4 44 86 3b 2f c6 a4 bd
       -0.015770663 -0.030725392 0.0040975455 -0.08045613
000020 d6 ef 30 3d eb 3a f4 ba c2 76 ed bb 52 b9 06 3d
       0.043197475 -0.0018633282 -0.007246823 0.03289158
000030 11 a0 b2 bd 53 a9 86 bd 62 cc a0 3b c1 68 94 3d
       -0.087219365 -0.06575265 0.004907177 0.07246543
000040 eb 46 28 3d ce 80 65 bd c8 8f 95 3c 92 21 3a 3d
       0.041083258 -0.05603104 0.018257037 0.04544217
000050 47 42 9d 3d 71 f6 3a bd c9 15 7c 3c 6b bc 73 bc
       0.07678657 -0.04564518 0.015386053 -0.014876465
000060 eb f2 e6 3c 82 cd dc 3c b0 30 00 3d eb 0f 18 3d
       0.028192004 0.026953463 0.031296432 0.037124556
000070 2b 36 3d bc 2e b5 98 3c 22 22 bb 3c 9d 57 78 3c
       -0.011548559 0.01864108 0.022843424 0.015157607
000080 eb e1 74 3c 50 de 8c bd c3 3f 71 bd d8 2f 8c 3d
       0.014946441 -0.0687834 -0.0588987 0.06845063
000090 0b 79 0a bd 2d b7 70 bb 4b bb 65 bd 5a af cf 3b
       -0.03380684 -0.0036730275 -0.05608682 0.006338042
0000a0 84 97 e9 bd 2a 65 67 bd 8f 6a 50 bb 45 f3 e4 bc
       -0.114058524 -0.056492962 -0.0031801795 -0.027948031
0000b0 93 59 be 3d a9 ea 6a 3d 7a f8 84 3d 37 42 85 bd
       0.09294429 0.057352696 0.06492706 -0.0650677
0000c0 3f a5 e3 bc a1 34 0c bd f1 e0 89 3c c7 e0 5d bd
       -0.027788756 -0.03422988 0.016830893 -0.054169443
0000d0 a7 31 30 3d 6e ed 4a 3d a4 60 c8 bc 07 30 26 3c
       0.043016102 0.049542837 -0.024460144 0.010143287
0000e0 c7 17 e0 bc 60 93 98 3d 08 60 6f bc e3 6e bb 3a
       -0.027355088 0.074499846 -0.014610298 0.0014300015
0000f0 12 02 47 3d df e5 04 3d f0 19 ec 3b 91 de 3a 3c
       0.04858596 0.032445785 0.0072052404 0.011405603

conv.5.weight f4 [64]
000000 56 c3 55 3f 41 7b 7b 3f 1f c3 4d 3f bc b7 52 3f
       0.83501184 0.98234946 0.80375856 0.82311606
000010 18 5a 8b 3f 29 70 37 3f 2b ec 3b 3f 71 e3 50 3f
       1.088687 0.7165552 0.7340724 0.8159705
000020 c3 66 30 3f d3 e1 6c 3f 0a a7 86 3f 77 bf 7f 3f
       0.689068 0.9253208 1.0519726 0.9990153
000030 5a 4f 71 3f 1e 77 95 3f a5 5f 4c 3f c5 39 51 3f
       0.94261706 1.1676977 0.7983344 0.81728774
000040 86 85 92 3f 3a d5 33 3f 5a 26 76 3f c6 d5 53 3f
       1.1446998 0.7024723 0.9615227 0.8274807
000050 fa 43 70 3f 9f 88 4e 3f 2b 1a 5e 3f 73 ae 6f 3f
       0.93853724 0.8067722 0.8675868 0.93625563
000060 a9 3d 94 3f 2e 6f 2e 3f d3 6a 71 3f 70 7f 7a 3f
       1.1581317 0.68138397 0.94303626 0.97850704
000070 ec 3a 5a 3f 69 f3 5b 3f 2a 99 61 3f ba 0c 81 3f
       0.8524616 0.8591829 0.88124335 1.0082009
000080 07 e0 74 3f 02 5b 66 3f 53 86 81 3f 08 8e 98 3f
       0.9565434 0.89982617 1.0119117 1.1918344
000090 dc da 82 3f 1c 4a 4b 3f be de 4b 3f 0a 83 77 3f
       1.022304 0.79409957 0.7963675 0.96684325
0000a0 6b 97 72 3f 04 be 59 3f ee 96 22 3f 53 fb 5c 3f
       0.94762295 0.85055566 0.6351155 0.8632099
0000b0 63 56 46 3f d7 ed 5f 3f 50 8f 85 3f 8b d3 57 3f
       0.77475566 0.8747229 1.043436 0.84307164
0000c0 59 c2 51 3f 27 83 64 3f 16 8c 60 3f 40 dc 81 3f
       0.81937176 0.8926262 0.87713754 1.014534
0000d0 fb 70 49 3f 1c d3 91 3f fa 5b 4e 3f 12 f7 7e 3f
       0.7868802 1.139255 0.80609095 0.9959575
0000e0 54 2a 4c 3f c6 b9 24 3f 88 30 3a 3f b8 a6 8f 3f
       0.7975209 0.6434597 0.727303 1.1222754
0000f0 6b 42 8c 3f 53 ee 92 3f ff 25 1d 3f bd 96 5b 3f
       1.0957769 1.1478981 0.613861 0.85776883

conv.5.bias f4 [64]
000000 d1 94 af be 51 4e 12 bf 79 49 1e bf 99 f1 ff be
       -0.34293225 -0.5715075 -0.6183086 -0.49989012
000010 9f 72 5f bf 0f 7b fb be 57 61 ca be 75 2d f1 be
       -0.8728427 -0.49117324 -0.3952739 -0.47104993
000020 ff 9b 1e bf 64 ad 04 bf cc 72 30 bf ae 53 29 bf
       -0.6195678 -0.51827073 -0.68925166 -0.6614331
000030 78 f6 f7 be f7 c1 37 bf 7d 04 a8 be e3 19 24 bf
       -0.48430228 -0.7178034 -0.32815924 -0.64102
000040 22 ff 40 bf 79 35 e7 be 54 34 4a bf fa d6 1f bf
       -0.753893 -0.45157984 -0.78986096 -0.62437403
000050 96 bf 27 bf 0c 79 04 bf 29 93 12 bf 13 cb 24 bf
       -0.6552671 -0.517472 -0.572558 -0.64372367
000060 6a 7d 8b bf 91 54 2d bf 1c 89 45 bf 09 ef 46 bf
       -1.0897648 -0.67707163 -0.7716234 -0.7770849
000070 04 6d 08 bf 10 18 80 bf 19 26 33 bf bb da 0e bf
       -0.53291345 -1.0007343 -0.6998001 -0.55802506
000080 89 8d 4d bf 0d 73 10 bf 4e 1e 1f bf 64 c5 3f bf
       -0.8029409 -0.56425554 -0.62155616 -0.7491057
000090 c2 6e 88 bf 4a af 13 bf 3d cf 0b bf a6 43 19 bf
       -1.0658801 -0.57689345 -0.54613096 -0.5986885
0000a0 93 4b 31 bf 07 81 1e bf 9c 2f 14 bf bf a0 05 bf
       -0.6925594 -0.6191563 -0.57885146 -0.52198404
0000b0 0d be 2b bf fa 67 27 bf 93 c4 0d bf bb 13 b4 be
       -0.6708687 -0.6539303 -0.55378073 -0.35171303
0000c0 d1 e6 12 bf cc c4 33 bf 18 22 14 bf a5 f9 3b bf
       -0.5738345 -0.70222163 -0.5786452 -0.734278
0000d0 6a f8 1f bf 56 71 2c bf 1a 9f fc be ce 75 e3 be
       -0.62488425 -0.67360437 -0.49340135 -0.44425815
0000e0 36 f6 eb be e3 57 19 bf 55 83 08 bf 2b ac 54 bf
       -0.46086282 -0.5989973 -0.53325397 -0.8307521
0000f0 26 26 46 bf dd f0 35 bf 7c 7b f3 be c8 46 37 bf
       -0.7740196 -0.71070653 -0.4755515 -0.7159238

conv.5.running_mean f4 [64]
000000 fb 3e 71 c0 80 88 72 c1 48 7a 18 c0 30 43 95 c0
       -3.769469 -15.158325 -2.3824635 -4.6644516
000010 1a 2c d8 c1 a6 37 5e 3f 1e d1 18 c1 d7 c0 a4 be
       -27.021534 0.8680366 -9.551054 -0.32178375
000020 51 59 2e c0 1d 33 08 c1 85 47 75 c1 1a 6e 2a c1
       -2.7242014 -8.512479 -15.329961 -10.65188
000030 d5 ec 1b c1 3d 27 20 c0 ae 27 80 c1 c6 ee 88 40
       -9.74532 -2.502395 -16.019375 4.279147
000040 7b bb 0d c1 76 c5 3d c1 16 7b aa c1 9c e8 aa c0
       -8.858272 -11.860708 -21.3101 -5.3408947
000050 bd 0d f0 c0 47 02 08 c1 64 c2 e2 c0 41 a4 00 c1
       -7.501677 -8.500556 -7.0862293 -8.040101
000060 60 da 6a c0 58 2b 80 c0 ef 77 9b c1 9b 7c 76 c1
       -3.6695786 -4.005291 -19.433561 -15.405421
000070 6c 65 92 bf 30 bd 98 c1 85 8b 6d c0 db d8 4a c1
       -1.1437201 -19.092377 -3.7116406 -12.677943
000080 4d b2 1f c1 e2 ce a4 c1 7c 3a a6 c0 34 e4 2a c1
       -9.98103 -20.601017 -5.194639 -10.680714
000090 f1 29 4b c0 85 65 fa c0 12 23 58 c1 b6 9d 5a c0
       -3.174435 -7.8248925 -13.508562 -3.415876
0000a0 e5 85 f1 c0 d3 c9 7c c0 83 5c 19 c1 9e 3a 5f c1
       -7.5475945 -3.9498184 -9.585086 -13.951811
0000b0 f6 e3 cc c0 96 15 73 bf a7 55 39 c1 b9 28 25 c1
       -6.4028273 -0.9495481 -11.583411 -10.322442
0000c0 e2 7f 80 c1 7e 1f 31 c0 2c ea 9b c0 ff c9 69 c0
       -16.062443 -2.7675471 -4.8723354 -3.6529539
0000d0 f5 b7 3e c1 a2 12 8c c0 a6 a1 e7 c0 9e a8 c2 3f
       -11.919911 -4.3772745 -7.2384825 1.5207708
0000e0 7b fc 45 c0 31 9a 2a c0 ff ed 95 c1 e4 f8 4e c0
       -3.0935352 -2.665661 -18.741209 -3.233941
0000f0 da 91 08 c1 ed 19 3f c1 59 16 88 bf cf 85 31 bf
       -8.535608 -11.94383 -1.063182 -0.693448

conv.5.running_var f4 [64]
000000 07 72 95 42 38 49 c8 42 2f 8d 57 42 29 b9 7a 42
       74.72271 100.143005 53.887875 62.68082
000010 bb c6 10 43 38 b9 c7 41 57 ec be 42 aa 59 7e 42
       144.77629 24.965439 95.4616 63.587563
000020 66 99 9a 42 8e c9 04 43 72 56 d4 42 3e ca 84 42
       77.29961 132.78732 106.16884 66.395004
000030 d6 3b 8d 42 65 12 32 42 86 58 00 43 57 9d ae 41
       70.61687 44.517963 128.3458 21.826826
000040 9b eb 09 42 71 de b0 42 17 f0 cd 42 f2 f9 12 42
       34.480083 88.434456 102.968925 36.744087
000050 d4 ef c6 42 df be 95 42 a3 98 8c 42 5f bf 85 42
       99.468414 74.872795 70.29812 66.87377
000060 3d cb d4 41 ca b9 25 42 14 7e b0 42 b1 b1 f6 42
       26.599237 41.431435 88.24625 123.34705
000070 da 52 63 42 f1 d3 8c 42 a4 b6 9b 42 1f 6b 80 42
       56.83091 70.41395 77.85672 64.20922
000080 3c c8 ef 42 dd c6 b1 42 1a c8 a9 42 9f e8 9d 42
       119.89108 88.888405 84.89082 78.95434
000090 58 52 4c 42 67 6a 82 42 09 02 90 42 46 5c 33 42
       51.080414 65.20782 72.003975 44.84011
0000a0 51 a7 82 42 0d 09 7b 42 70 62 8c 42 b2 9b bd 42
       65.32679 62.75884 70.19226 94.80409
0000b0 8c a9 2b 42 1f b1 de 41 3a 51 2b 43 16 f2 6c 42
       42.915573 27.836485 171.31729 59.236412
0000c0 1a 77 9b 42 12 97 8f 42 af fd dc 41 de 76 69 42
       77.73262 71.79506 27.623869 58.36608
0000d0 2b 0a 41 42 0a f6 3f 42 a0 e4 02 42 00 c9 5e 42
       48.25993 47.990273 32.723267 55.69629
0000e0 b3 77 f4 41 37 f3 dd 41 ee 91 11 43 7e a3 44 42
       30.558447 27.743757 145.57004 49.15966
0000f0 fb 35 62 42 ef 4e 44 42 69 b2 1d 42 60 28 6a 42
       56.552715 49.077084 39.42423 58.53943

conv.8.weight f4 [128, 64, 3, 3]
000000 bd aa ac bd 44 5b 3d be d7 eb ff be 93 c1 34 be
       -0.08431003 -0.18491846 -0.4998462 -0.17651968
000010 33 ed ce bd 3e 41 bf bd 35 0a e2 3d 23 0e 02 3d
       -0.10103836 -0.09338616 0.11037103 0.031751763
000020 b5 fc 0b 3f ad 91 29 bf 8b 72 19 bf d8 6d 21 bf
       0.54682475 -0.6623791 -0.59940404 -0.63058233
000030 c1 75 66 be a8 93 55 bd 2d 03 25 be 4f de c8 be
       -0.22505857 -0.05214277 -0.16114493 -0.39232108
000040 e1 a8 26 bf 6c af 11 bf 84 a7 9c be 47 69 e0 be
       -0.6510144 -0.569083 -0.30596554 -0.4383032
000050 9c e9 e3 be e0 0e b9 be 16 0f a3 be ca 08 ce bd
       -0.44514167 -0.3614416 -0.31847447 -0.1006027
000060 bf f6 06 be cf 47 c9 3d 37 d8 23 3e 7c a8 b5 bd
       -0.13180064 0.098281495 0.16000448 -0.088700265
000070 e6 db 38 3e 56 eb 0c 3e 49 db 95 3d 1e 3c 8c 3e
       0.18052635 0.13761649 0.07317216 0.27389616
000080 a9 55 df 3e 83 e5 59 3e be 01 2b 3e 4c 8f e6 3e
       0.4362004 0.21278958 0.16699883 0.45031202
000090 48 54 18 bf 4e 16 da be 80 71 ed be 3e bd df bd
       -0.59503603 -0.42595142 -0.46375656 -0.10924767
0000a0 b5 f9 95 bd b2 44 21 bd 24 ea 64 bf 4c 1f 98 bf
       -0.073230185 -0.039372154 -0.8941977 -1.1884551
0000b0 ce 7a 59 bf ce c2 7d 3e 4c ba 90 3d 01 a4 90 3e
       -0.8495301 0.24781343 0.07066783 0.28250125
0000c0 25 c9 e6 3d cb 9e fc bd 89 e0 33 3e 83 c5 89 3d
       0.11268834 -0.12334975 0.17566122 0.067271255
0000d0 0a 5c 9a bd 46 31 3c 3e dd df 83 3e e5 63 c1 3e
       -0.07537086 0.18378171 0.25756732 0.37771526
0000e0 b3 07 bc 3e ef 48 0a bd fe de 95 3d 1c 6d 4f 3e
       0.36724624 -0.03376096 0.07317923 0.20256466
0000f0 5d dd 96 be 56 b5 39 be 12 af a2 3d 5c 3c 06 3f
       -0.29465762 -0.1813558 0.07943548 0.5243585
000100 44 ec 15 3f 47 69 0f 3f f8 90 17 be c7 1a c5 bd
       0.5856364 0.56020015 -0.14801395 -0.09624248
000110 75 16 38 3e 64 c6 04 bf 4a 37 b2 be 98 07 57 bb
       0.17977317 -0.5186522 -0.34807807 -0.0032810923
000120 98 b8 2e be 29 57 0e bc 92 e2 b3 be 2a 66 0f be
       -0.17062604 -0.008687773 -0.35133797 -0.14003816
000130 0f dd ae bc 28 6d 03 bf 62 a7 1a bf eb 31 eb be
       -0.021345643 -0.51338434 -0.60411656 -0.45936522
000140 40 fe 0c bf 82 07 1a 3e 14 b8 0c 3e fa 52 4b be
       -0.55075455 0.15041927 0.13742095 -0.19855872
000150 33 73 45 be ab 20 10 be 23 3e 1e 3d 70 9a 9b 3d
       -0.19282226 -0.14074962 0.038633477 0.07597816
000160 e6 69 f3 3c 71 4c 47 3e 8a 5c e6 bd 74 1a 4b bd
       0.029713582 0.19462754 -0.11248119 -0.049585775
000170 a8 3b c0 be 73 3b 51 3d 26 5c 30 3e 56 30 1d 3e
       -0.37545514 0.051082086 0.17222652 0.1535047
000180 f2 fd eb bd ae 16 07 be 45 73 b1 3c cb 8b af 3e
       -0.115230456 -0.13192245 0.02166141 0.3428634
000190 aa 6b c4 3e 4d 91 39 3e ff 18 67 be fe c4 14 be
       0.3836339 0.18121834 -0.22568129 -0.14528272
0001a0 b7 c2 bc be df 2f e8 bd 27 34 7f bd 2d 80 8f be
       -0.36867306 -0.11337256 -0.062305596 -0.28027478
0001b0 94 b3 ac 3e f9 8e c9 3d 51 49 0a be a8 9b e1 3e
       0.33730757 0.09841723 -0.1350453 0.4406407
0001c0 af 47 96 3d bb ab 82 3d eb 9f b7 3e 31 af 36 bd
       0.07337891 0.06380411 0.35864195 -0.04460067
0001d0 1c bc 05 bf 46 f4 07 3f 63 95 62 3e cd 75 9d 3e
       -0.5224016 0.53107107 0.22127299 0.30753937
0001e0 04 2b 3c 3f fa 86 b7 3e d7 f7 18 3e 9b ce 1d 3f
       0.73503137 0.35845166 0.14938293 0.6164338
0001f0 93 64 3d be 62 3a 16 bf 6f c3 8b bd 9d 42 ad 3a
       -0.18495397 -0.58682835 -0.068243854 0.0013218705
000200 d6 c5 eb be c9 c6 2a 3e 53 57 0a 3e da 02 8d bd
       -0.46049374 0.16677393 0.13509874 -0.068853095
000210 b1 ef 80 3d 53 5e 6e 3e ed 9d 97 3e 95 81 f9 3d
       0.062957175 0.2327817 0.29612675 0.12182919
000220 91 46 ac 3e 6b 71 c9 3e fa 3e fc bd 2d 15 b8 3d
       0.33647588 0.39344344 -0.12316699 0.08988414
000230 83 3b 9e bd 5d 30 25 bf 2b d4 f4 be 71 bc 00 bf
       -0.07726195 -0.6452692 -0.4781812 -0.5028754
000240 78 64 54 bd 16 d5 4f bd 8e b0 03 3f 74 b9 0b 3e
       -0.051853627 -0.050740324 0.51441276 0.13644964
000250 20 4a 50 be 04 93 33 3e bb 00 52 3f 21 97 0e 3e
       -0.20340776 0.17536551 0.82032365 0.13924839
000260 6a a3 8b bc 9e 03 29 be 83 37 c2 be 70 e6 3f bf
       -0.017045695 -0.16505286 -0.37932977 -0.74960995
000270 4a ca 3f be 62 0a 74 be 6a 55 c3 be b4 94 a2 be
       -0.18729511 -0.23832086 -0.38151103 -0.31754076
000280 dc 68 88 be dc f0 f5 be 78 e5 90 bc 2d 6b 53 3f
       -0.266425 -0.48035324 -0.017687544 0.8258541
000290 03 88 49 3e 98 80 09 bf 14 24 20 3e c8 fc 87 bd
       0.1968079 -0.53711843 0.15638763 -0.06640011
0002a0 29 55 71 bf 3b 48 c3 be 95 43 8d bd 4f 93 50 3d
       -0.9427057 -0.38141045 -0.06897656 0.050921734
0002b0 2c ff 89 3e db c1 c9 3d c1 07 9b bf ce 97 8e bf
       0.26952493 0.09851428 -1.2111741 -1.1140077
0002c0 70 23 c5 be 5a 43 88 bf b9 a7 67 bf 76 02 fa 3d
       -0.385036 -1.0645554 -0.904903 0.12207501
0002d0 e6 32 7b be 6c 56 64 be 9e 59 8d 3d 96 5b 61 bc
       -0.24531135 -0.22298592 0.06901859 -0.013754746
0002e0 f0 fa 8a 3e ad 0b 5b 3e bc 4c 96 bd 75 ad a8 3e
       0.27144575 0.21391173 -0.07338855 0.32944837
0002f0 67 f5 c5 3d ec 46 b8 3e 5d 4b b3 3e a9 5d bf 3e
       0.096659474 0.3599161 0.35018435 0.37376145
000300 c6 67 93 bd 6f 05 bc bd 26 27 cb 3b d3 f0 57 be
       -0.071975276 -0.09180724 0.006199735 -0.21087961
000310 06 d6 37 be 8e 3e 60 be 00 03 4d be ca 90 db bd
       -0.17952737 -0.21898863 -0.20020676 -0.10720976
000320 10 83 94 3e 31 60 b2 be 6b 4e a9 bc d1 bd f8 3e
       0.29006243 -0.34839013 -0.020667275 0.48582318
000330 90 c7 27 bf f8 64 78 be 53 bb f9 3d 3b 36 1f bf
       -0.65538883 -0.24257267 0.121939324 -0.62192124
000340 ac 71 af be 57 a6 d7 be 67 3c 7e be b1 09 16 3e
       -0.34266412 -0.42119095 -0.24827729 0.14652134
000350 4c e5 23 3d 57 e2 4a be 81 88 68 be 3c 3a 3b bf
       0.040013596 -0.19812904 -0.22708322 -0.73135734
000360 52 22 a5 be 23 8f 8d 3e 24 a9 0a 3f bc c2 0c 3e
       -0.32252747 0.27648267 0.5416434 0.1374616
000370 b0 f4 ec 3e dc 1b 60 3f bd 32 ae bd f0 58 93 be
       0.46280432 0.8754251 -0.08505771 -0.2877879
000380 4b 25 9a bd 9a e0 7c be 8f 41 e3 be 0f 17 8b be
       -0.07526644 -0.24695054 -0.44385955 -0.2716603
000390 72 2f 81 3c 66 85 60 bd 51 77 1b be 35 51 f5 3e
       0.015769694 -0.05481472 -0.15182234 0.4791352
0003a0 6c e5 ad 3e 03 0a 9f 3e 4f 37 09 be 8a 2b b0 bd
       0.33964097 0.31062326 -0.13400005 -0.086020544
0003b0 65 1f 60 be bb 58 e0 be aa ac a7 be 2a 83 af be
       -0.21886976 -0.43817696 -0.3274892 -0.34279758
0003c0 79 e5 82 be 46 70 69 be 16 07 a4 be 00 d1 b9 3e
       -0.255657 -0.22796735 -0.32036656 0.36292267
0003d0 14 71 c6 3e d3 9a d2 3e 43 ab a4 3e cf a0 80 3e
       0.38758147 0.41133747 0.32161912 0.25122687
0003e0 2d 7c 91 3e 8c bd e8 3d dd 67 2d 3e 17 9c e7 3e
       0.2841505 0.11364278 0.16934152 0.45236275
0003f0 da 3f f5 3c f0 37 34 3e ae 5d 22 3f 3f 36 2a bf
       0.029937673 0.17599463 0.63424194 -0.6648902

conv.8.bias f4 [128]
000000 2f f0 a1 bc 76 73 a2 bd f9 11 1b 3d 0e 2a 4f bc
       -0.019767849 -0.07932179 0.037858937 -0.012644304
000010 38 93 9d 3d 64 d6 6d bc 6d 77 1f bd a9 08 dc ba
       0.076940954 -0.014516447 -0.038932253 -0.0016787249
000020 59 b0 2a bd 31 1e 32 bd 03 a9 66 bd f2 a5 15 3d
       -0.041672084 -0.043485824 -0.056313526 0.03653521
000030 32 fc 71 3c b9 1f 64 3d 97 bf 05 3d 7e df 39 3c
       0.014769601 0.055694316 0.032653417 0.011344789
000040 dc 1e 18 bc a6 14 10 3d 0d 38 b0 3a fc 97 81 bc
       -0.009284701 0.035175942 0.0013444439 -0.015819542
000050 bb a8 7d 3d 77 38 3c 3c 34 5b 18 bd 37 95 08 3c
       0.061928492 0.011488072 -0.037196353 0.008336357
000060 64 06 a9 bc 23 8e 85 3b d0 3a 90 bd c6 5a 71 3c
       -0.02063293 0.004075782 -0.070424676 0.014731115
000070 b4 39 cc 3c c5 8e 11 3c f0 86 81 3d 8b 3d 88 bb
       0.024929859 0.008884137 0.063245654 -0.004157727
000080 5c df bf bc f3 44 a6 bc af 6c 11 3d 21 eb 34 bb
       -0.023421936 -0.02029655 0.03550404 -0.0027605968
000090 ee 03 10 bc 31 77 67 3c d1 32 e5 3c 77 e9 03 3d
       -0.008789999 0.014127539 0.027978333 0.03220507
0000a0 bb e1 2e bd e0 c2 a4 bc 0f 59 17 bd 26 28 2b bd
       -0.042695742 -0.020112455 -0.036950167 -0.041786335
0000b0 31 ea 3f bd 48 58 12 ba 9a 43 84 bd ef 26 6b bd
       -0.0468542 -0.0005582613 -0.064582065 -0.057410177
0000c0 63 45 96 3d 1b c9 04 3d 82 8c 98 3d c4 65 4a bd
       0.07337453 0.03241835 0.07448675 -0.049413458
0000d0 53 95 8c bd 62 62 42 bc d4 72 18 3d 19 fd ed bc
       -0.06864419 -0.011864277 0.037218884 -0.02905135
0000e0 62 7f c3 3b 5b ed b5 3c 60 e5 d5 bc 88 92 4e 3d
       0.005966113 0.022207906 -0.026110351 0.05043271
0000f0 a7 6e fc bb 46 61 1b 3d cb 01 83 bd 4f 57 27 bc
       -0.0077036205 0.037934564 -0.06396826 -0.010213687
000100 77 4f 2c 3d 21 9c d3 3c 61 dd 15 3c 60 6a ff bc
       0.04206797 0.025831284 0.009147019 -0.031178653
000110 61 ad 92 bd 71 9e b0 bc d4 50 e2 bc 96 33 96 bd
       -0.07161976 -0.021559926 -0.027626432 -0.07334058
000120 5e 34 3a bd 1c a0 9b 3d 52 a2 00 bd 9b 0e 80 bd
       -0.045460097 0.07598898 -0.0314048 -0.06252786
000130 8f f1 04 bd 48 73 6c 3a 36 ac 4f bc 67 0a 30 3c
       -0.03245693 0.0009019864 -0.012675336 0.010744668
000140 6d 54 a4 3c 3b c3 fb 3c 7c 5a 1b 3d 58 0a 25 bc
       0.020059789 0.030732742 0.03792809 -0.010073267
000150 b7 51 97 bc 90 5c c7 bc d1 75 4b 3d 96 b2 9e bd
       -0.018471582 -0.02433613 0.049672905 -0.07748906
000160 08 4e be 3d 2f 43 18 3c 0c 80 a6 bc d8 b0 f2 3c
       0.09292227 0.009293362 -0.02032473 0.029625341
000170 85 29 a4 bc d5 c8 0d bd f0 aa 8d bc 78 81 e1 bd
       -0.02003933 -0.034615356 -0.017293423 -0.11011022
000180 e5 bc 38 3d e6 69 4b 3d 2b e7 48 3d 89 f8 f7 ba
       0.04510202 0.04966154 0.049048584 -0.0018918674
000190 fa 29 9d bc fa 91 7e 3c 4f 12 ba 3d de b4 9d bc
       -0.019185055 0.015537733 0.09085523 -0.019251283
0001a0 0c b0 c6 3b 7e a8 76 3d 8a e3 8e bd 60 bf 5e 3d
       0.006063467 0.06021928 -0.069769934 0.05438173
0001b0 93 37 68 bd fe 38 87 bc dc 0c 15 bc b8 0d ca bd
       -0.056693625 -0.016506668 -0.009097304 -0.09865898
0001c0 41 8d e8 bc b2 e0 56 bc b3 b5 16 3d 5b cc 3c bd
       -0.028387668 -0.013115095 0.036794376 -0.046093326
0001d0 ed f9 ab 3d 41 2b 20 bd 79 5e 72 bc 11 1a 3f 3d
       0.08397279 -0.03910375 -0.014793032 0.04665572
0001e0 ea b4 85 bb 88 a3 8a 3c 69 a7 3e 3d 7e 76 82 3d
       -0.0040804045 0.01692368 0.046546374 0.06370257
0001f0 01 f5 51 3d e3 f3 f9 bc 94 22 98 3d 35 bd 3a bd
       0.051259045 -0.030511802 0.0742847 -0.045590598

conv.9.weight f4 [128]
000000 f3 7c 47 3f 77 2a 41 3f b7 3b 40 3f 21 cd 2a 3f
       0.7792503 0.7545542 0.7509112 0.6671925
000010 54 cd 3e 3f 15 df 29 3f d2 03 10 3f 5b e7 14 3f
       0.74532056 0.6635602 0.5625583 0.5816552
000020 70 ce 45 3f 87 a6 23 3f 88 88 0d 3f b3 d4 0b 3f
       0.77268124 0.63925976 0.55286455 0.5462143
000030 65 f8 29 3f 1e 69 14 3f ed a4 0f 3f 36 bc 31 3f
       0.66394645 0.57972896 0.5611103 0.6942781
000040 97 8c 1e 3f 96 f7 1b 3f 72 2d 38 3f ac 86 40 3f
       0.61933273 0.6092466 0.71944344 0.7520549
000050 be 69 18 3f c3 e1 3e 3f 52 5c 3e 3f 82 a9 1d 3f
       0.5953635 0.74563235 0.7435962 0.61586773
000060 48 35 64 3f 4a 7a 32 3f 42 9a 51 3f d8 0d 43 3f
       0.891438 0.6971785 0.81876004 0.76193
000070 45 e8 37 3f d1 de 24 3f 16 8d 48 3f 53 34 43 3f
       0.7183879 0.6440249 0.7834028 0.76251715
000080 d0 9a 1c 3f a3 ca 46 3f 98 8c 28 3f 5e 65 38 3f
       0.61173725 0.7765295 0.6583953 0.72029674
000090 57 31 1e 3f 01 9e 0c 3f f6 7b 36 3f a8 7e 18 3f
       0.61794037 0.54928595 0.712829 0.5956826
0000a0 42 3f 30 3f 7b fb 0e 3f f4 23 3e 3f 8e b4 2f 3f
       0.68846524 0.5585248 0.7427361 0.6863488
0000b0 5c 89 2c 3f 93 8a 43 3f 2e b3 25 3f 1c f8 05 3f
       0.67397094 0.7638332 0.6472653 0.5233171
0000c0 04 d6 30 3f 21 1d 30 3f 66 23 3b 3f 2b c1 27 3f
       0.6907656 0.6879445 0.7310089 0.65529126
0000d0 7f 9d 3b 3f f3 59 29 3f 47 62 1f 3f f2 36 1a 3f
       0.73287195 0.66152877 0.62259334 0.6024009
0000e0 50 25 2c 3f 1c 7b 3e 3f 79 80 1c 3f 44 1c 27 3f
       0.67244434 0.744066 0.61133534 0.65277505
0000f0 58 b8 4e 3f e4 74 2f 3f 22 a6 28 3f 76 8f 3e 3f
       0.80750036 0.68537736 0.658785 0.74437654
000100 81 a6 33 3f f4 99 2c 3f 58 3b 21 3f 22 65 39 3f
       0.7017594 0.67422414 0.62981176 0.7241994
000110 07 86 37 3f 37 71 15 3f 15 ae 2d 3f a3 2f 4d 3f
       0.71688884 0.5837588 0.67843753 0.8015081
000120 9b 3d 24 3f 3f 8d 52 3f b7 93 24 3f c4 6d 46 3f
       0.641565 0.82246774 0.64287895 0.7751124
000130 ac 01 3d 3f ce 09 44 3f fc 30 40 3f 34 b7 30 3f
       0.73830676 0.7657746 0.75074744 0.69029546
000140 08 f2 4b 3f 0e cf 39 3f 39 8b 3c 3f 05 70 3d 3f
       0.79666185 0.72581565 0.73649937 0.73999053
000150 2c 8c 2e 3f 9b 0a 1b 3f d4 f5 00 3f 3a 1c 46 3f
       0.68182635 0.6056306 0.50375104 0.7738682
000160 8b 70 49 3f 24 2c 45 3f 20 03 4f 3f 77 a2 42 3f
       0.7868735 0.7702048 0.80864143 0.7602915
000170 8f 18 32 3f 1b 56 51 3f 06 b2 33 3f 7d 5b 34 3f
       0.69568723 0.8177201 0.7019352 0.704521
000180 33 39 23 3f 86 db 01 3f c0 e0 2c 3f fa a9 32 3f
       0.63759154 0.5072559 0.6753044 0.69790614
000190 82 88 26 3f 95 c1 3f 3f 6b e2 3f 3f d1 88 3b 3f
       0.65052044 0.7490476 0.7495486 0.7325564
0001a0 de a3 2f 3f e1 c1 2b 3f df b1 55 3f bf 23 36 3f
       0.68609416 0.6709271 0.83474535 0.71148294
0001b0 18 6e 3d 3f d2 c3 54 3f 4d a7 1c 3f ac 21 24 3f
       0.73996115 0.831113 0.6119278 0.6411388
0001c0 b8 3e 3a 3f cc 1b 36 3f 49 e7 41 3f 2f 98 2a 3f
       0.7275195 0.71136165 0.7574354 0.66638464
0001d0 4b 47 51 3f 26 5c 32 3f 03 d4 36 3f 73 80 35 3f
       0.8174941 0.6967186 0.71417254 0.7089912
0001e0 fe 4d 30 3f 8a 94 3d 3f 96 01 26 3f 22 02 30 3f
       0.68869007 0.7405478 0.6484617 0.68753254
0001f0 7a 38 2d 3f 23 72 1c 3f 09 da 35 3f 66 95 57 3f
       0.676643 0.6111166 0.7103582 0.8421234

conv.9.bias f4 [128]
000000 45 80 74 bf 3f 80 59 bf 7a 5a 8c bf 59 e6 4d bf
       -0.95508224 -0.84961313 -1.0965111 -0.8042961
000010 ca 88 89 bf 30 3d 80 bf ff f9 6d bf c8 b5 57 bf
       -1.074487 -1.0018673 -0.9295959 -0.8426175
000020 3c ac 92 bf 73 02 75 bf 88 ba 1d bf 5d 22 51 bf
       -1.1458812 -0.9570686 -0.6161275 -0.8169306
000030 34 13 5f bf a1 d0 4e bf cb 73 3a bf 71 5c 67 bf
       -0.87138677 -0.8078709 -0.72832936 -0.9037543
000040 b9 77 63 bf c8 24 5e bf d2 33 89 bf 09 20 7a bf
       -0.8885456 -0.86774874 -1.0718939 -0.9770513
000050 30 44 67 bf 10 03 62 bf fe 6a 82 bf 58 0a 82 bf
       -0.9033842 -0.88285923 -1.0188901 -1.0159407
000060 4a 60 c4 bf fa 68 6e bf 82 9b 84 bf 69 ac 8d bf
       -1.5341885 -0.9312893 -1.0359957 -1.106824
000070 bc ba 6f bf 6b 32 65 bf 12 d4 5f bf ec a2 59 bf
       -0.9364431 -0.89530057 -0.8743297 -0.85014224
000080 0c 88 44 bf 97 11 4e bf 45 3b 5c bf 7c 41 73 bf
       -0.7677009 -0.8049559 -0.8602794 -0.95021796
000090 8b db 48 bf b5 af 4c bf a1 48 81 bf 2e 91 3f bf
       -0.78459996 -0.7995561 -1.010029 -0.748309
0000a0 85 e7 7c bf ce 7f 37 bf a3 a4 6f bf 12 10 6a bf
       -0.9879077 -0.7167939 -0.9361059 -0.9143077
0000b0 f2 75 5d bf 1e f3 78 bf bc 4b 7b bf 68 08 43 bf
       -0.86508095 -0.9724597 -0.98162436 -0.761847
0000c0 d0 c5 7f bf e8 86 87 bf d5 ea 7f bf 93 d3 75 bf
       -0.9991121 -1.0588045 -0.999677 -0.9602596
0000d0 9e 4d 83 bf 45 5a 5d bf fd 49 65 bf a9 8d 56 bf
       -1.0258062 -0.86465865 -0.8956602 -0.83809906
0000e0 88 fb 5b bf e9 fe 8c bf 1b 59 4d bf d6 47 46 bf
       -0.8593068 -1.1015292 -0.8021409 -0.7745336
0000f0 63 13 a0 bf ef b0 84 bf ff d2 59 bf 7d 10 70 bf
       -1.2505916 -1.0366496 -0.8508758 -0.9377516
000100 6d 73 68 bf 4a 1f 73 bf 9d 84 45 bf aa 82 72 bf
       -0.90801126 -0.9496962 -0.77155477 -0.9473063
000110 08 3b 8e bf f4 eb 51 bf fe c4 79 bf 2a 9e 84 bf
       -1.1111765 -0.8200066 -0.9756621 -1.0360768
000120 81 f1 16 bf 1b ac 87 bf e4 46 79 bf d1 f2 63 bf
       -0.58962256 -1.0599397 -0.97373796 -0.89042383
000130 18 e0 7b bf cc bb 89 bf 58 75 80 bf 4e 93 77 bf
       -0.98388815 -1.0760436 -1.003581 -0.96709144
000140 8b 74 82 bf 47 17 64 bf c3 10 81 bf f8 cc 7c bf
       -1.0191816 -0.8909802 -1.008324 -0.9875026
000150 3a d2 5c bf 16 3f 32 bf b5 fd 3d bf ac bd 80 bf
       -0.8625828 -0.6962751 -0.7421525 -1.0057883
000160 f9 89 95 bf 3c e1 68 bf 2e f8 78 bf e5 ed 87 bf
       -1.1682731 -0.9096868 -0.9725369 -1.0619475
000170 f8 de 67 bf a2 cc 82 bf 8f fa 71 bf f5 6d 8a bf
       -0.905746 -1.0218699 -0.9452295 -1.0814806
000180 b4 7e 4f bf e5 61 1a bf ba 6b 62 bf 02 c5 7d bf
       -0.8105271 -0.60305625 -0.8844563 -0.99128735
000190 84 1e 9a bf 69 b8 5f bf e4 3d 6f bf 9d e2 6d bf
       -1.2040563 -0.8739076 -0.9345381 -0.9292391
0001a0 df 48 a2 bf 89 74 37 bf 2e 1e ce bf c5 cd 56 bf
       -1.2678488 -0.71662194 -1.610296 -0.8390773
0001b0 92 bb 85 bf 1d fc 90 bf 41 8a 67 bf 46 5d 7c bf
       -1.0447867 -1.1326939 -0.90445334 -0.98579824
0001c0 88 53 4a bf 76 a1 5a bf 77 8c 9f bf d9 74 49 bf
       -0.7903371 -0.8540262 -1.2464741 -0.7869392
0001d0 55 c9 88 bf 4c cd 74 bf 41 64 5e bf 59 23 64 bf
       -1.0686442 -0.9562576 -0.86871725 -0.89116436
0001e0 83 78 77 bf f7 7c 9b bf 5f d3 6c bf 8d bf 46 bf
       -0.9666826 -1.2147511 -0.92510027 -0.77636033
0001f0 5c 18 7d bf f8 96 5c bf 4e 95 81 bf dc 70 90 bf
       -0.98865294 -0.8616786 -1.0123689 -1.1284442

conv.9.running_mean f4 [128]
000000 58 03 3c c0 10 5a 3f c0 06 e8 71 c0 bd 37 28 c0
       -2.937704 -2.989872 -3.7797866 -2.628402
000010 69 24 5c c0 0d e2 d3 bf c2 97 a2 3f 9f bb 92 c0
       -3.4397223 -1.655336 1.2702563 -4.585403
000020 0f 10 1c c0 62 ac 4e c0 97 a9 47 c0 83 ce d0 c0
       -2.4384801 -3.2292714 -3.119726 -6.525209
000030 c0 3f 53 c0 68 8c cd bf 36 d3 42 c0 0d 43 3a bf
       -3.300766 -1.6058474 -3.0441413 -0.7275856
000040 ec 80 a5 bf 80 a9 af 3e 37 04 71 c0 bd be 13 c0
       -1.2929969 0.34309006 -3.7658823 -2.3085167
000050 ae 60 4f c0 4d 4d 56 c0 7a e7 e8 bf 5a 9e 09 c0
       -3.2402759 -3.348468 -1.8195641 -2.15029
000060 57 f5 4d c0 c6 a6 ce bf 31 f2 28 c0 f7 13 0b c0
       -3.2180994 -1.6144645 -2.6397822 -2.1730936
000070 76 41 83 c0 93 93 71 c0 98 91 09 c0 39 2a 4f c0
       -4.101741 -3.7746322 -2.1495113 -3.236952
000080 e3 7b 2b c0 23 24 34 c0 56 cb 12 c0 83 df 73 c0
       -2.6794364 -2.8147056 -2.2936606 -3.810517
000090 d3 e7 2d c0 02 e4 91 c0 49 ae 32 c0 09 32 a1 bf
       -2.7172744 -4.559083 -2.7918875 -1.2593395
0000a0 df 9f 23 c0 40 4d c4 c0 93 15 5d c0 a2 b9 f2 3e
       -2.5566328 -6.13443 -3.4544418 0.47407252
0000b0 f2 24 81 c0 d3 6f 2e c0 0a 2c 01 3f 01 b8 f4 bf
       -4.03576 -2.7255752 0.50457823 -1.9118654
0000c0 d1 83 0c c0 ce 54 5f c0 62 66 34 c0 55 77 2d c0
       -2.1955454 -3.489551 -2.818749 -2.7104084
0000d0 43 88 a9 bf 1b 7d 04 c0 48 71 cb 3f a4 42 4a c0
       -1.3244709 -2.0701358 1.5893946 -3.1603174
0000e0 52 77 54 c0 06 6d 29 c0 bb e2 10 c0 9d c9 ad bc
       -3.3197827 -2.6472793 -2.2638385 -0.0212143
0000f0 28 4c 2c c0 8a 55 42 c0 12 7a e5 bf da e9 86 c0
       -2.6921482 -3.036471 -1.7927878 -4.2160463
000100 7d 98 46 c0 e9 a3 1e c0 d5 a7 39 c0 ce 72 ba bf
       -3.1030571 -2.4787543 -2.9008687 -1.4566286
000110 9c 3a 63 c0 5c 93 b6 3f 44 c0 85 c0 26 52 3c c0
       -3.5504522 1.426372 -4.17972 -2.942514
000120 73 af a6 c0 7e 99 9e bf d7 1b cf bf 23 45 42 c0
       -5.208917 -1.2390592 -1.6180371 -3.0354698
000130 93 32 5b c0 e9 45 7a c0 2c 32 36 c0 e8 2a 71 c0
       -3.4249618 -3.910517 -2.8468122 -3.7682438
000140 8f 86 d4 bf 5e cd 4e c0 ff 81 35 c0 26 b5 72 c0
       -1.6603564 -3.2312846 -2.8360593 -3.7923064
000150 fb 95 57 c0 e2 46 6b c0 04 a1 28 c0 63 ba 0a c0
       -3.368529 -3.6762013 -2.6348276 -2.1676261
000160 3e a1 fc bf 5b d9 24 c0 49 b0 29 c0 46 71 4d c0
       -1.9736707 -2.5757663 -2.6513846 -3.2100387
000170 7e 1a 88 c0 19 6d 29 c0 ad d4 5b c0 bb dd 16 c0
       -4.253234 -2.6472838 -3.4348557 -2.3572834
000180 60 15 75 c0 ba 25 7c c0 17 be 1e c0 b1 82 36 c0
       -3.8294296 -3.9398026 -2.4803522 -2.8517268
000190 87 e1 20 3f b8 60 6d c0 ca 70 36 c0 f7 e8 05 c0
       0.6284413 -3.7090282 -2.850634 -2.092344
0001a0 a8 f7 16 c0 3a d1 6a c0 b0 b9 44 c0 16 bf 58 c0
       -2.3588657 -3.6690202 -3.0738335 -3.386663
0001b0 20 a1 76 c0 50 b0 57 c0 b6 81 7f c0 89 12 e5 be
       -3.8535843 -3.3701363 -3.992292 -0.44740704
0001c0 c4 e5 7a bf a8 43 1b c0 fc 33 2c c0 d6 2f 83 c0
       -0.98006845 -2.4260044 -2.6906729 -4.0995893
0001d0 9c b4 71 c0 98 81 21 c0 fe 7a 3e c0 d7 dc 6e c0
       -3.7766485 -2.5235348 -2.9762568 -3.732229
0001e0 88 9e 0c c0 d1 e0 9b bf 2d b4 3f c0 49 f0 f6 bf
       -2.197176 -1.2177984 -2.995372 -1.9292079
0001f0 b5 c3 db bf 46 83 8a c0 80 36 46 c0 e0 58 2f c0
       -1.71691 -4.3285246 -3.0970764 -2.7397995
